model/gru.pth (torch, 16165 bytes, 5 tensors)

gru.weight_ih_l0 f4 [96, 1]
00000000: 644e 763e 1ba3 343c 7b51 96be a31e c63e
00000010: 79a2 3a3e 7bf1 acbd 72ea eabd 3485 a43d
00000020: 1850 693b d2fa 193e 6d64 003d f895 1b3e
00000030: 873d 153d c210 46be 2b5d 98bd 67a9 9cbe
00000040: eb66 b03d 3e50 113d ff84 84be 988a 383e
00000050: ec88 b33e d8d9 06be 2847 a93e ea9d eebd
00000060: 5c0d 55bd f530 9c3e 84fa a23e 5521 8cbd
00000070: f24d 2ebc 81a0 663d f287 8b3d f285 a43c
00000080: f8e3 00bf 62fc 38bc 7378 aebe 998e 50be
00000090: 5ccf 4dbd 7f5a 113d e145 95be 7698 f3bd
000000a0: 25c4 17be f8ff dfbe bfeb dfbd 7b95 4ebd
000000b0: e60e a3be ce77 b0be a07e 5fbe 841d e5be
000000c0: 3bbc c7bd a8ce 92be 4a9f 2dbe b29d 063b
000000d0: 2af8 b5be 7ca5 c5bd 3f41 c7be de96 48be
000000e0: 9eab d53d 06a2 0bbe aac9 dabe 54c2 143c
000000f0: 4ebe 9abe 1e1e 6cbe f556 39be f502 55be
00000100: f5f1 b93e c658 063d bf7b 9e3e c3a9 68be
00000110: 560b 603d 17af 94bd bad2 0f3e 3f72 06be
00000120: 2b6d 793e a54e e53e 1c55 cc3d 3346 0fbe
00000130: e544 bc3e 2140 f43e 0af6 073e 1689 b93e
00000140: 1112 8c3e 0688 c0be 64cb cc3e 5569 433d
00000150: 398d d23e 6d2f f0bd 8f38 953e 3081 b23e
00000160: 59f4 fa3d 25b5 823e 84a9 cfbd 98ee 29bd
00000170: 8eef 7f3e 52ef 32be 1f65 4bbe eb3c 653e
0.24053341 0.0110252155 -0.2935904 0.3869525 0.18226041 -0.08444496 -0.11470498 0.08033219
0.0035600718 0.15037087 0.031345773 0.15193927 0.03643563 -0.1934233 -0.074396454 -0.30597994
0.0861338 0.035476916 -0.25882718 0.1802162 0.350654 -0.13169038 0.330621 -0.116512135
-0.052014694 0.305061 0.31831753 -0.06842295 -0.010638701 0.056305412 0.06813039 0.020083401
-0.5034785 -0.0112906415 -0.3407627 -0.20366897 -0.05024658 0.035486694 -0.29154876 -0.11894314
-0.14820917 -0.43749976 -0.10933637 -0.050435524 -0.31847304 -0.34466404 -0.21825647 -0.4474908
-0.09752699 -0.2867329 -0.16955295 0.002054077 -0.35540897 -0.09650704 -0.38916966 -0.19588801
0.10433124 -0.13636026 -0.42731982 0.009079535 -0.30223316 -0.23058364 -0.18099578 -0.2080191
0.3631741 0.032799505 0.30953786 -0.22721009 0.05469831 -0.07259958 0.1404523 -0.13129519
0.2435805 0.44786564 0.09977171 -0.13991623 0.36771312 0.47705176 0.1327745 0.362374
0.27357534 -0.37603778 0.39998925 0.047707874 0.4112337 -0.11727796 0.29144713 0.34864187
0.12253637 0.25528827 -0.101397544 -0.041487306 0.24993727 -0.17474106 -0.19862793 0.2238652

gru.weight_hh_l0 f4 [96, 32]
00000000: 9fc5 e73c bf35 193c ca71 7c3d 8e5d c0bd
00000010: 8e2b d03d 5230 ba3d 5df0 29be 259d 0f3e
00000020: 40cb 4a3e b3be 913d 434b 9d3d f47d b6bb
00000030: e8b0 1fbe 2550 f33d f183 55bd 4031 63bc
00000040: 46bd 8e3d 6319 703d 9d5e 253d 1c3c ce3d
00000050: 2a76 bfbc 915f 843d 5157 13be 2416 f83d
00000060: 988e 233e 586d 323e 2b8e 94bd b998 50be
00000070: 85fd a5bd cbfe c93d b1d1 c33d abcc 3d3e
00000080: 5343 91bd 7964 643e 51d0 983d d200 2c3e
00000090: d328 2e3d 2002 9b3d e078 99bd 778c 20be
000000a0: 8a42 d4bd 762d a5bd 4963 e9bc 7d2a a2bd
000000b0: 51d8 d83d 0ffc 08be b14e 8bbd e2f6 f5bd
000000c0: 3177 2f3d 3bb5 253d ea48 133e bd04 5bbd
000000d0: 3483 083c c57b 223e 7537 11bd 54aa f8bc
000000e0: 14a4 1f3e 731e 1c3e a69f 183e 362b 293e
000000f0: baac c5bd cc04 9ebd e212 3bbd b201 9abc
00000100: 6513 7a3b dc83 0bbe b623 1f3d 60b8 f4bd
00000110: 9489 f03c 68db b3bd e90e 70be bb83 023e
00000120: 46b7 c3bd 13a8 81bd cfec 5ebe ee7c 073d
00000130: dd36 4bbe 40b7 15be d67f 843e 780e 73bc
00000140: 5b4d d3bc 7502 1c3e 56a6 64bd 21de e0bd
00000150: 99fd 8b3c 144f 07bd aeb3 17be b163 8bbe
00000160: 7b1b 28be d8e8 c03c a3a7 083e 74be 163d
00000170: 8705 4e3d b344 14bd 1374 783e d92a c5bd
00000180: 5706 813e b7c6 7b3d cdb7 463e baaf 373c
00000190: 1fa0 1d3e 851f d6bd e9db f6bd d7f0 5cbc
000001a0: f890 ef3d 67e9 24bb bc43 bd3d 7b61 b83c
000001b0: b305 59bc f7e4 5cbd e761 253e b7be 313e
000001c0: ad8a 6c3d 1b3e 54be 8552 633e 7ac2 723d
000001d0: 6f28 6b3d 8463 1fbe 22a3 473d c15b d73c
000001e0: 6dbb 223e 9cd2 5c3d 2024 103d 44a1 853c
000001f0: 1c47 1b3e 5ea0 f93d 325a b2bb d2e2 3f3e
00000200: 8d3d 15bd 037a b83d efc6 aabd 513c 023e
00000210: 3c7f 44bd 8262 4d3d 6b2f fb3d eae3 dabd
00000220: bd89 2c3d e75e da3d 1df8 143e 58a7 87bd
00000230: 81b0 163e b4bf 10bd 4a3d a43d b224 263e
00000240: 2fe6 a13b d819 81bd 4c66 273e 7490 1d3d
00000250: 4bb3 1fbd b73e b9bd 73ed b7bd e3b0 14be
00000260: da6e 133e 1d93 20bd 5fc8 25bd b51d d6bc
00000270: 84a5 163e 2d87 04be ffc0 4bbd 3fee 803d
00000280: d217 093e 593e 1dbe a7ad d8bd 2d4b a23d
00000290: 8045 85bd ed5d 46bd 0374 20bd 67db 373e
000002a0: 0e27 2cbc 48e2 70bd badc d2bd 2871 ae3d
000002b0: b363 f63d 06bc 06be 8a2a 323e aeec c63d
000002c0: be4a 8ebd f7fb fb3d 1c39 f0bd 3453 003e
000002d0: fe7f 163e 6a67 563c 5780 5e3d 5c96 3fbe
000002e0: e951 013e 2956 2dbd f6ed 10be d4f9 0fbe
000002f0: 085d a43d 098f 16be 5118 0e3e d211 273e
00000300: 74c1 323d ba23 8a3d 87d9 5b3e 05ab 9cbd
00000310: aa2e 8ebd c53f fcbd 6c17 763d 3009 c73d
00000320: 675b 81bd 1d6d debd b2a0 6f3d 9a8c 17bd
00000330: 734c 9c3d 22f6 893d c3f1 153e a53b c4bd
00000340: 5128 353d c93a 943c fe04 21be aac4 4c3d
00000350: 33be 143e 1c73 e8bc 02b0 aebd 8385 37bd
00000360: df5d 47be c8a8 6f3b 332f 00be e4a0 a33d
00000370: 0b77 70bd 6eef dc3d d4de b73d dd0b 8b3e
00000380: d411 223e c98a 20bd fd07 a9bd 84df 473d
00000390: c669 903d df68 01be 5380 6fbd ec01 aabc
000003a0: 6fd7 863d 6cc3 0cbd 4703 033d 989d 823d
000003b0: f141 26bd 65b9 6fbd 7bd5 cb3c 771e 2cbd
000003c0: 2cf8 c3bc 5c61 73bd 6976 90bd 990f ea3d
000003d0: f556 003e 1db7 9f3d a492 923d 5c18 92b7
000003e0: d376 dabd 9528 e83d 3d05 353e 597d 073d
000003f0: ee49 52bd 2297 0e3e aec8 733b 9e7f df3d
0.028292475 0.009351193 0.061631955 -0.09392844 0.101645574 0.090912476 -0.16595598 0.1402479
0.19804096 0.07116451 0.07680371 -0.005569214 -0.15594828 0.11880521 -0.052127782 -0.013866723
0.06969695 0.05861796 0.040373433 0.10070059 -0.023371775 0.0646354 -0.14388777 0.12113598
0.15972364 0.17424524 -0.07253679 -0.20370759 -0.08104996 0.09863051 0.0956148 0.18535106
-0.07092919 0.22303952 0.07461608 0.16797188 0.0425194 0.07568765 -0.07493758 -0.15678583
-0.10364254 -0.080653116 -0.028489726 -0.0791826 0.10588134 -0.13377403 -0.068021186 -0.1200998
0.04283828 0.040456038 0.14383283 -0.053471316 0.0083320625 0.15867527 -0.03545328 -0.030354656
0.15589935 0.1524599 0.14904651 0.1652039 -0.096520856 -0.07715759 -0.045672305 -0.018799637
0.0038158533 -0.13624519 0.038852416 -0.11949229 0.029362477 -0.08782083 -0.23443188 0.12745564
-0.09556441 -0.06330886 -0.21770023 0.033078127 -0.19845147 -0.14620686 0.2587878 -0.014834993
-0.025793722 0.15235312 -0.055822693 -0.10979868 0.017088698 -0.0330344 -0.14814636 -0.27224496
-0.16416733 0.023548529 0.13345198 0.036802724 0.05029824 -0.03619833 0.24263029 -0.09627313
0.2520015 0.061468806 0.19406052 0.01121133 0.15393113 -0.104552306 -0.12053663 -0.013485155
0.116975725 -0.0025163533 0.09241435 0.02250742 -0.013245988 -0.053929295 0.16150628 0.17357908
0.05774944 -0.20726816 0.22199447 0.0592675 0.057411607 -0.15565306 0.04873956 0.026288869
0.1589181 0.05391179 0.0351907 0.016312249 0.15163845 0.12188791 -0.005442881 0.18738869
-0.036435653 0.09007647 -0.08338725 0.12718321 -0.047972903 0.050142772 0.12264904 -0.106880024
0.042123545 0.106626324 0.14547773 -0.06623715 0.14715768 -0.035339072 0.080195025 0.16224936
0.00494077 -0.063037574 0.16347617 0.03846784 -0.038989346 -0.09045165 -0.08980837 -0.14520602
0.14397755 -0.0392028 -0.040474292 -0.026137212 0.14711577 -0.1294219 -0.049744602 0.06295442
0.13387993 -0.15355815 -0.105799966 0.07924495 -0.06507397 -0.04842942 -0.039173137 0.17954789
-0.010507358 -0.05880955 -0.102960065 0.085176766 0.12030735 -0.13157663 0.1739904 0.09713112
-0.0694785 0.12303918 -0.11729643 0.1253174 0.14697263 0.013086179 0.054321613 -0.18709701
0.12628902 -0.042318497 -0.14153275 -0.14060146 0.08025557 -0.14703001 0.13876463 0.16315392
0.043641523 0.067450956 0.21469699 -0.07649807 -0.06942494 -0.123168506 0.06008093 0.09718549
-0.06316262 -0.108606555 0.05850286 -0.036999322 0.07631769 0.06736399 0.14643006 -0.09581689
0.0442279 0.018094437 -0.1572456 0.04999224 0.1452568 -0.0283752 -0.085296646 -0.04480506
-0.19469403 0.0036569107 -0.12518005 0.07989672 -0.05870728 0.10787855 0.08978048 0.27157488
0.15827113 -0.039194856 -0.08253477 0.048797145 0.07051425 -0.12637661 -0.05847199 -0.02075287
0.065840594 -0.034366056 0.031985547 0.06377715 -0.04059023 -0.058526415 0.024882069 -0.04202124
-0.023922049 -0.05941902 -0.07053835 0.11428756 0.12533171 0.07798598 0.07156876 -1.74159e-05
-0.10667195 0.113358654 0.1767778 0.033078525 -0.051340036 0.1392484 0.0037198472 0.10913013

gru.bias_ih_l0 f4 [96]
00000000: 8eb1 7a3d a746 0a3e d5c1 72be e066 3cbd
00000010: 50d7 b93d 24b5 903d dcc1 e8bd 83b1 8abd
00000020: 0923 0cbd d159 343d cdfa 9bbd 7933 80bb
00000030: ce1e 093e a648 4bbe bb56 933c a188 563d
00000040: eaef 9f3b 8893 1cbe d2b5 773b cd08 913c
00000050: 1886 c0bd c831 36be 254d 36be 9453 43bd
00000060: e5cf e1bd 3077 5abc f1eb 8abc 02e3 04be
00000070: 2b56 0fbe 5520 f5bd 79ca fe3d bf1d 043d
00000080: ae01 11bf cf6a bb3e b15d 45bf f7f3 fbbe
00000090: 8f19 a3be 7a9c 883e a8b4 f9be 7ad1 f7be
000000a0: eba2 07bf 059f 47bf 7286 c7be 1a27 21bf
000000b0: e84d 13bf 9341 3ebf efc2 8dbe a050 28bf
000000c0: 624c 08bf 2253 09bf 22d2 d2be 4df0 01be
000000d0: a083 e1be d35a 22bf e41d 0dbf 72c2 f9be
000000e0: 7e26 fd3e de1d 04be ed2d 13bf 9ed5 82bc
000000f0: 538a 08bf 6f76 16bf 7bfa bdbe 5212 42bf
00000100: 3a1b cfbd 4a8a 783d cad0 64bc 0557 123e
00000110: eb29 0e3c b9a5 a23d 7c3b a13d bd2b 183c
00000120: 3063 a6bd 4433 a9bd 7eaf 0d3e 51b8 f43c
00000130: d8b2 2b3e 58e2 e6bd 700d a8bd b48c 2d3c
00000140: 394c 2a3e 5373 083a 4122 b03d 6233 7ebd
00000150: 3448 563d 6325 90bc cc91 843d 4435 fa3d
00000160: 6840 65bc 880d c1bd f13b 8fbd d0f3 94bc
00000170: fa31 4b3d 09bb e2bd 0779 9fbd 44e6 d6bd
0.061204486 0.13503514 -0.23706754 -0.045996547 0.09074271 0.070658 -0.11365101 -0.06772139
-0.0342131 0.044030968 -0.07616196 -0.003912386 0.13390657 -0.19851932 0.017985692 0.052376393
0.004880895 -0.15290654 0.0037797582 0.017704392 -0.09400576 -0.17792428 -0.17802866 -0.04768713
-0.11025981 -0.013334081 -0.016958209 -0.12977222 -0.13997714 -0.119690575 0.12440962 0.03225493
-0.5664319 0.36604926 -0.77096087 -0.49209568 -0.31855437 0.26681882 -0.48770642 -0.48402005
-0.5298297 -0.7797702 -0.3896976 -0.6295029 -0.5754075 -0.7431881 -0.27687785 -0.65748024
-0.5324155 -0.53642476 -0.41175944 -0.12689324 -0.44045734 -0.63419837 -0.55123734 -0.48781163
0.4944343 -0.12902018 -0.5749195 -0.015971001 -0.53336066 -0.58774465 -0.37105164 -0.75809205
-0.10112615 0.060678758 -0.013965795 0.14291008 0.008676986 0.07941765 0.07872674 0.009287772
-0.08124387 -0.08261731 0.13836476 0.029873045 0.16767442 -0.112736404 -0.08205688 0.010592628
0.16630639 0.0005205173 0.086002834 -0.06206072 0.052314952 -0.017595952 0.06473121 0.12217191
-0.013992406 -0.09426409 -0.06993855 -0.018182665 0.04960821 -0.110708304 -0.07786756 -0.104931384

gru.bias_hh_l0 f4 [96]
00000000: 807c 7ebd 6513 283e 1d22 febd cebe 24be
00000010: 9c7a 2e3e e1ce 10be 2782 8e3d 1203 22be
00000020: 7d8a 243d 225c bc3d 2679 c13d 4200 f13d
00000030: 6576 30be ce9f 8abe 202b 12be 0ea5 64bd
00000040: 27eb 143e 45c1 5abe 18a7 8e3d 47eb d33c
00000050: 628f 46bd 73e0 34be 8c41 0bbe a51e dabd
00000060: 174b ce3d 0f1d 3c3c 6984 f63c d28b 69bc
00000070: 5b4b 16be 33ba 263e 5cec 14be 0521 c4bd
00000080: c8b8 23bf ebb3 c83e 1dc2 3ebf 8228 3cbf
00000090: 5736 10be efac 293e 4f10 1cbf 8ef2 e7be
000000a0: fd99 37bf 8f98 3abf 251c f2be 12de 08bf
000000b0: fa26 1ebf 7362 4dbf 5e61 fabe b127 0dbf
000000c0: 9895 8fbe 55ef febe 6c62 0ebf 9772 04be
000000d0: fb22 a5be b325 24bf dffa 8abe 93f3 f4be
000000e0: f402 e43e 6f59 55bc 7031 87be ee3e 13be
000000f0: b5ca 1bbf 844a 03bf 7847 e4be 2f0b 0dbf
00000100: 05ae f23d 3943 c8bd 0a46 91bd d092 18bd
00000110: cde0 323d fe83 05be 8dc5 b7bb 8a74 86bd
00000120: e2e4 8f3d 0d2a 113e 34a2 163d 2686 92bd
00000130: 6d9b c2bd 99b0 fc3c 7031 89bd 8434 01be
00000140: f0cf c6bd d4ce 04bc 1037 0cbd efe1 033e
00000150: dbfb c93d be47 bf3c 7d3e c23d 187a c53b
00000160: da67 c33d 08f0 9a3d a529 f2bd 1dd3 92bd
00000170: fd1c b4bc 2328 1abe 19c6 53ba 5f02 d53d
-0.06213045 0.16413648 -0.1240885 -0.16088411 0.1703896 -0.14141418 0.06958418 -0.15821484
0.040171135 0.091972604 0.09446935 0.11767627 -0.17232664 -0.27075046 -0.14274263 -0.05582147
0.14542829 -0.21362789 0.06965464 0.025869025 -0.048476584 -0.17663746 -0.13599223 -0.10650376
0.10072916 0.0114815375 0.030092435 -0.014254527 -0.14677183 0.16281967 -0.14543289 -0.095766105
-0.6395383 0.39199767 -0.74514943 -0.7349931 -0.14083229 0.16569875 -0.60962385 -0.45302242
-0.7171934 -0.72889036 -0.47287098 -0.5346385 -0.61778224 -0.80228347 -0.4890241 -0.5513869
-0.28043818 -0.4979197 -0.5561893 -0.12934338 -0.3225325 -0.64120024 -0.27144524 -0.47842082
0.44533503 -0.013021811 -0.26404905 -0.14379475 -0.6085618 -0.51285577 -0.44585776 -0.5509519
0.11849598 -0.09778447 -0.07093437 -0.037249386 0.043671418 -0.13038632 -0.0056082667 -0.06565197
0.07026078 0.14176197 0.036775783 -0.07154493 -0.09502301 0.030845927 -0.066988826 -0.1261769
-0.0970763 -0.008105952 -0.0342322 0.12879156 0.09862491 0.023349639 0.09484575 0.0060265176
0.095412925 0.075653136 -0.11824349 -0.07169173 -0.021986479 -0.15054373 -0.000807853 0.10400843

fc.weight f4 [1, 32]
00000000: 160a 533e 7a20 94bd d799 b33d f615 03be
00000010: 94b5 273d e9d0 5c3c e35a 723d 79d8 dabd
00000020: 9432 b93c f519 1d3e e319 273e 90c6 84bd
00000030: 0c84 f73d d5dd 103e eea4 ce3d 2b29 353e
00000040: 442d 173e 8fde 02be 60e9 263e 95f6 e43c
00000050: 5f4d cf3d d030 c5bd 5d86 9f3d 59e2 833d
00000060: 4b60 8fbc fd40 76bc 735f b9bd 9652 bebc
00000070: 7036 0f3d 84e3 c6bd ff96 8abd 1282 903d
0.20609316 -0.07232757 0.08769577 -0.12801346 0.04094465 0.013477542 0.059168708 -0.1068582
0.022607125 0.15341933 0.16318469 -0.06483185 0.12085733 0.14147122 0.100900516 0.17691486
0.14763361 -0.12780212 0.16299963 0.02794961 0.10122179 -0.09628451 0.077893 0.06439657
-0.01750197 -0.015030143 -0.090514086 -0.02323274 0.034964025 -0.09711364 -0.067670815 0.07056059
