model/gru.pth (torch, 16165 bytes, 5 tensors)

gru.weight_ih_l0 f4 [96, 1]
00000000: bb76 c9be 45e1 b5bd 9f0a 8abe a772 ed3c
00000010: 5704 123d 91dd 643e a02a e33e e859 5d3e
00000020: 8e2d 7b3e 3c82 debe 7c50 903e 9eab 973e
00000030: 4834 89bd f947 b8be 6479 c53c 4333 e03d
00000040: 54a5 a93e f39d fcbd 6315 813e bbfc f93c
00000050: 29b4 863e 3584 793e dff1 463e c373 a53d
00000060: b6fc 993d 15b8 143e fdcd 8ebe dbd1 253c
00000070: 60dd 19be e5e6 6b3e f57d 433d 0d17 553e
00000080: 822b cdbe d80c 26be f5ba ddbc ddb1 c6be
00000090: f717 c3be 28ff c8bd 1fa0 a9be 4f3c 86be
000000a0: 64c5 89be 2b97 03bf 4abb 683d 423c 093d
000000b0: 1922 4f3e 7993 6bbe 431b 81be e8bc e53d
000000c0: a6bd a6be 9b91 7fbe 65f0 683c de04 7cbe
000000d0: 6870 dbbe 9e4d a2be 00a5 19be 0672 88be
000000e0: b585 74be db7f 773e 6be4 c4bd 0d87 8ebe
000000f0: 940b cbbe 15a9 f8be 24ef 25be aa86 83be
00000100: b87f 99be 0ee5 b23e 8b65 8a3d 4ffa 85be
00000110: c349 a53e d9b1 25be 11eb 97be 251e 8f3e
00000120: cff3 b33e c78a cf3e 5421 67bd d6b6 3f3d
00000130: 3421 8cbd e11c b4be c6b8 d9bd f0a1 5fbd
00000140: 8798 97be 7d9f b73e 48c8 da3a 657e 3fbe
00000150: 6924 fe3d a48b 9a3e ff5d b73d 54dd 3fbe
00000160: 6024 73be 15dc d03c 2a2b b2be 4a78 ac3e
00000170: c69f de3e 6df6 b53e 0097 2cbd 9781 873e
-0.39348397 -0.088808574 -0.26961228 0.028985335 0.03564867 0.22350146 0.44368458 0.21616328
0.24529096 -0.43458736 0.28186405 0.2962312 -0.06699425 -0.3599241 0.024105735 0.109472774
0.33133948 -0.12334814 0.2521163 0.03051602 0.26309326 0.24366839 0.19428204 0.080787204
0.07518904 0.14523347 -0.27891532 0.010120834 -0.15025854 0.23037298 0.047727544 0.20809574
-0.40072256 -0.16215837 -0.027066687 -0.38807574 -0.3810422 -0.09814292 -0.33129975 -0.26217887
-0.2690841 -0.5140254 0.056819238 0.033504732 0.20227851 -0.23005475 -0.25216112 0.11217672
-0.32566565 -0.24957888 0.014217471 -0.24611232 -0.42859197 -0.31699842 -0.15004349 -0.26649493
-0.2387913 0.24169867 -0.0961388 -0.2783741 -0.3965727 -0.485665 -0.16204506 -0.25688678
-0.29980254 0.3494038 0.06757649 -0.26167533 0.32282838 -0.16181125 -0.2967153 0.27952686
0.3514695 0.40535566 -0.05642827 0.046805225 -0.068422705 -0.35178283 -0.10630946 -0.054597795
-0.29608557 0.35863867 0.0016691769 -0.1870056 0.124092884 0.30184662 0.08953475 -0.18736774
-0.23744345 0.025495568 -0.34798557 0.33685523 0.43481272 0.3553957 -0.042136192 0.26466057

gru.weight_hh_l0 f4 [96, 32]
00000000: 32ae a63d f23c 82bc ce82 283e 591e 6c3e
00000010: 4731 20be e8b2 583e d232 25be b126 5a3d
00000020: 2807 efbd b9d1 973d 97cd 87bd 9e09 1b3e
00000030: 4be9 763e 8cbc 853d bd6f babc 99c9 f83d
00000040: 8290 3dbd ba93 62be 74d4 72be 2d1a 1a3e
00000050: 34b7 6abc 5460 033d fb7d e2bd 1ddb 82bd
00000060: d49d d4bd 3dc2 b9bc 7bcb aabd eb3e e73d
00000070: f604 03be 27e9 62bd 14c6 d53d 8059 92bc
00000080: 596f febd 4e94 20bd ba72 af3d bf58 0bbd
00000090: cad3 1ebc 1d0e 6f3d d5b2 c5bd b756 91bd
000000a0: 77ef bdbd b45b 033e 385e 2fbe 5371 d73c
000000b0: cc29 e43c 5818 e93c c6da 9ebd 13fe 87bd
000000c0: bc6b f43d 4a8e c23c 9404 f73d 7ba6 613e
000000d0: 305e 233e d04c 5bbe 29ec 52be 42e5 d7bc
000000e0: beab 463e ebec c6bd 84c7 ca3d 68ec 143d
000000f0: 28b7 b53d 7365 d03d 4661 4abe b7d3 6dbe
00000100: 78f0 193e d22c ec3a 1aa1 153d 5ecc 013e
00000110: 0ee3 16be 1f75 adbd 385b a3bd 5b22 c73d
00000120: dc57 11be 24aa 59be 4755 83bd ba01 513e
00000130: 17e5 6e3e 300b 433e 9dc5 063d bace 0b3c
00000140: 9830 853d f54c 7c3d b927 26be b7c1 99bd
00000150: b648 143e 5ea0 0bbd 0bd3 b4bc 50cf 2fbc
00000160: 7ee4 be3c 38d7 113c 38a3 da3d 0122 8bbd
00000170: 9482 c8bd 0748 0a3c 7835 b53d 0456 5cbc
00000180: 1a94 40bd e815 313e 60f4 c23d 5f04 183d
00000190: bced 5dbd 2855 b63c 30fa 7e39 df47 af3d
000001a0: daf7 313d 4d7f b8bd 4f26 5dbd fc5f 84bd
000001b0: 3101 fb3d 0e34 c63c a390 0f3e 6a1a e7bc
000001c0: 3c54 38bd 2fcc 09be fdf7 4b3e acc7 0f3d
000001d0: d994 5abd c09d 16be 1ad4 943d 01b3 11bd
000001e0: cc07 033e af02 ee3d e7c4 28bd 07d3 103e
000001f0: 098b 42bc d6cf cd3c 51da 2bbe cf0c 35be
00000200: b734 26be d7a4 303e 795d 0a3e 6e94 77bd
00000210: c8cc da3d 9500 17bd 4ca4 ed3c f522 e9bd
00000220: 9bfe 653e aff4 82bd b64e f43d 1e1e 2fbd
00000230: 610b c63d 5878 9bbd daeb a63d f1b3 eebd
00000240: 2172 7cbc a7e7 1ebe 4c7c 123e a6fb 1d3d
00000250: f418 3abe 28a8 d23c 0ee5 08be c4f2 52bd
00000260: da57 563d 110e 69bd 702e 93bc a024 253d
00000270: 817e d4bd 4a0f 0f3d e340 373c 9a76 f8bd
00000280: cd3c 0a3e 2976 a6bc 901d 32be 2fa9 24be
00000290: ead0 e3bc 231c 50bd 881a 3a3c a029 9ebd
000002a0: 48b5 3b3d 0a32 c43d 0b5b e7bc 7bbd 0d3c
000002b0: 6e93 1bbc 3a91 143d e41c 2b3d 7960 28bd
000002c0: 76ce 0f3d 35d6 fbbd 3a94 f53d 3e40 a93d
000002d0: 7292 093d 5750 e6bd 4bbd b83d 0244 3d3e
000002e0: 991a c8bd 202a 143e 72a5 2fbe 1fd9 693e
000002f0: dd00 e53d d766 cebd 1a76 da3d d352 553c
00000300: 0ed7 35be 1d25 16be a6a0 233e c550 103e
00000310: 15c0 053e 63f5 5ebe b1cb 62be 786a dbbc
00000320: fe1f b73e 6cf4 893e 2cde 0dbe edef 3c3e
00000330: debe 993d bd98 6ebe 5b75 693d a99e cb3d
00000340: 3f73 253d 92cf 5c3e e84b d4bd e33f 713d
00000350: 36d5 9d3d 12f6 88bd 706b 8f3d 79c4 473b
00000360: bccf 3abe 9bb2 21be 64ce 8d3b 4bfb b33d
00000370: a2e5 3c3e be01 8f3e 9221 2bbe 3f62 c4bd
00000380: bc5c 20be 0de3 17be b111 133e 236e 183e
00000390: 43ad b6bd 2294 183e 30e6 ae3c 23cb de3b
000003a0: 4211 033e 22c6 1d3e bcdc e83d d1f1 c1bd
000003b0: 5f33 04be 162a 52be 9268 d4bc 4c14 b7bc
000003c0: aa75 133e f7b5 1f3d 236f 933d 63e6 1ebd
000003d0: df45 a13d 848d 373e dcb1 22be 958a 01bd
000003e0: bfb3 fdbd 62fc fb3b c08d 7f3d b090 debc
000003f0: d98c 0f3e 8c98 6c3d af3a 323e a34f 18bc
0.08138694 -0.015898202 0.16456148 0.23058452 -0.15643798 0.21161997 -0.16132668 0.053259555
-0.11671287 0.07413048 -0.0663101 0.15140387 0.24112432 0.06530103 -0.02275836 0.12147827
-0.04628039 -0.22126666 -0.23713857 0.15049048 -0.014325906 0.032074288 -0.11059185 -0.06389449
-0.10381666 -0.022675628 -0.08339592 0.112912975 -0.12794861 -0.055398133 0.10438171 -0.017864943
-0.12423582 -0.039203934 0.08566804 -0.03402018 -0.009694049 0.05836307 -0.0965325 -0.07096618
-0.0927419 0.1282795 -0.17125785 0.026299154 0.027851962 0.02845399 -0.077565715 -0.06640258
0.11934611 0.02374949 0.1206142 0.22036164 0.15953898 -0.2141602 -0.205979 -0.026354436
0.19401452 -0.09713157 0.09901336 0.036358267 0.08872825 0.101756 -0.1976367 -0.23225294
0.15033138 0.0018018729 0.03653059 0.12675616 -0.14735052 -0.08469605 -0.07976383 0.0972335
-0.14193672 -0.2125631 -0.0641275 0.20410815 0.23329578 0.19047236 0.032903302 0.008533174
0.06503409 0.06159683 -0.1622609 -0.07507651 0.14480862 -0.034088485 -0.02207329 -0.0107305795
0.023302313 0.00890141 0.10675663 -0.06793595 -0.09790531 0.008440024 0.08848089 -0.013448242
-0.04701624 0.17293513 0.09519267 0.037113544 -0.0541818 0.022257403 0.0002431653 0.0855863
0.04344926 -0.09008656 -0.053991612 -0.0646362 0.122560866 0.024194743 0.14020018 -0.028210837
-0.045002207 -0.13456796 0.19918819 0.03510253 -0.05336461 -0.14708614 0.07267018 -0.035571102
0.12795943 0.116216056 -0.041203406 0.14143 -0.011873969 0.025123518 -0.167825 -0.17680667
-0.16231047 0.17250381 0.1351222 -0.060444288 0.1068359 -0.03686579 0.029009007 -0.11383621
0.22460406 -0.06394326 0.119290754 -0.04275333 0.09670139 -0.07591313 0.08150454 -0.11655415
-0.01540807 -0.15518056 0.14305228 0.03857007 -0.18173581 0.025714949 -0.13368627 -0.05150105
0.052329876 -0.05689818 -0.017966479 0.04031813 -0.10375691 0.03492669 0.011184904 -0.121319965
0.13499756 -0.020320015 -0.1739409 -0.16080163 -0.027809579 -0.050808083 0.011358865 -0.07722783
0.04582718 0.09579857 -0.028241655 0.008651133 -0.009495599 0.03627131 0.0417756 -0.04110763
0.035109006 -0.12296716 0.119911626 0.08264206 0.033586927 -0.11245792 0.0902048 0.18482974
-0.09770698 0.14469194 -0.17152956 0.22836731 0.11181805 -0.10078209 0.10667057 0.013020235
-0.17757818 -0.14662595 0.15979251 0.14093311 0.13061555 -0.21773295 -0.22148015 -0.026784167
0.35766596 0.26944292 -0.13854283 0.184509 0.07507108 -0.23300453 0.056996685 0.099423714
0.04039311 0.21563557 -0.103660405 0.058898818 0.077066824 -0.06687559 0.07002914 0.0030482097
-0.18243307 -0.15790789 0.004327582 0.08788165 0.18446973 0.27931017 -0.16712025 -0.095890515
-0.15660375 -0.14832707 0.14362217 0.14885764 -0.08919766 0.14900258 0.021349996 0.006799118
0.12799552 0.15407613 0.11370227 -0.09469951 -0.12910222 -0.20523867 -0.02592877 -0.022348545
0.14400354 0.038991895 0.07198932 -0.038793933 0.07874655 0.17925078 -0.1588816 -0.031626303
-0.123877995 0.0076899985 0.062391043 -0.027168602 0.14018573 0.057762668 0.17405199 -0.009296331

gru.bias_ih_l0 f4 [96]
00000000: d8bb 8dbd ac54 273d 2b80 af3c 51d5 3cbd
00000010: be16 d13d dfd8 103d cf5e 9bbd 1e82 753c
00000020: 2bee 44bb 5c2c d93d a42a 2abe 77e5 793d
00000030: 477c 0ebe 5593 5fbd daeb 34be 1887 873d
00000040: 41c6 09be b374 80bd 8a15 0fbe 39a2 12be
00000050: 228e fdbd d59d 78bd fccf ec3d e2d4 ba3d
00000060: dd55 09be 3d42 9cbd 8f55 023e 7c52 1dbb
00000070: 1b3c 18be 04df dcbd d1a0 09be 0412 75bc
00000080: f306 33bf b7fb 27bf d988 a13c c44e aebe
00000090: 8a04 d6be d481 5b3d 9f57 0dbf 04c8 18bf
000000a0: 675a 3ebf aad4 26bf 10c1 e4bc 0c0a 94be
000000b0: aecc 523e aaea 34bf 5d98 04bf e9f3 8abd
000000c0: 3c31 15bf 2320 10bf 15d6 663d b6aa 1cbf
000000d0: 1686 05bf abec 1abf 2afd 0fbf 2ba2 15bf
000000e0: 7ab5 f0be 8324 913d 8fab 29be 40a2 08bf
000000f0: cf58 1bbf 9a3c 4dbf 55d5 5fbe 1e64 31bf
00000100: c50f 6a3c 28c3 913d 7d2f ae3d d8b5 24be
00000110: c592 b83d fd62 5d3c a67c ca3d 04f4 583d
00000120: 50bd c3bc e3b1 543d e7f4 dd3d 9cf8 00be
00000130: 5fe8 a0bd b6fe 1ebb 5625 0bbe bec0 d4bc
00000140: 78c0 f8bd 667f 9d3d 99dc 1a3d a1a8 0dbe
00000150: 24e0 d5bd f2c7 14bd d17b 2dbd eb02 c0bc
00000160: a2be 12bd 30df 443d d785 b7bd 59ec 61bc
00000170: 66b2 60bc a8c3 fabd 26c0 bb3c d8af 263e
-0.06920594 0.040852234 0.02142342 -0.046101872 0.10209416 0.035363074 -0.07586443 0.014984636
-0.0030049186 0.10604164 -0.16617829 0.06100985 -0.13914596 -0.054583866 -0.17668095 0.06617564
-0.13454534 -0.062722586 -0.1397306 -0.14319696 -0.12380625 -0.060697395 0.11563107 0.091226354
-0.1341166 -0.076298214 0.1272795 -0.0024005463 -0.14866678 -0.10784724 -0.13440253 -0.014957909
-0.6993248 -0.6561846 0.019718574 -0.34044468 -0.41800338 0.05359061 -0.55211824 -0.596802
-0.74356693 -0.6516825 -0.02792409 -0.28913915 0.20585892 -0.7067057 -0.5179499 -0.067848034
-0.5827825 -0.56299037 0.05635651 -0.61197984 -0.52157724 -0.60517377 -0.5624567 -0.58450574
-0.47013456 0.07087042 -0.1656935 -0.53372574 -0.60682386 -0.80170596 -0.21858723 -0.6929339
0.014285986 0.07117301 0.085051514 -0.16084993 0.09012369 0.01351237 0.09887056 0.052967086
-0.023893982 0.05192746 0.10837727 -0.12594837 -0.07856821 -0.0024260706 -0.13588461 -0.025970813
-0.121460855 0.07690315 0.037808035 -0.13833858 -0.10443142 -0.036323495 -0.04235441 -0.023438891
-0.035826333 0.04806441 -0.08961075 -0.01378926 -0.0137144085 -0.1224435 0.022918772 0.16278017

gru.bias_hh_l0 f4 [96]
00000000: d57a 3a3c 4de9 28be 0f82 efbc 9201 f5bd
00000010: 46b1 0f3c ba55 83bc 940e 093e ab05 cbbd
00000020: 1bcd 9ebd 4036 c73d 24cb 883d fa71 933c
00000030: 17f8 2fbd e5f9 54be a91f 0abc 4529 0f3e
00000040: afda 013e 0450 5bbe 5805 bdbc f386 b33d
00000050: 6f3e 2dbd 5da8 133d 98af a83d 52bd aabc
00000060: 9238 f23d eea5 31bd 9eb7 25be 0fbc 983d
00000070: e164 e4bd d98d 083d e39d 30be e94c 09bd
00000080: 57f0 51bf e05c d0be 0109 a43c dd94 13bf
00000090: 1446 2ebf 1967 5a3e 974e e6be 164e 07bf
000000a0: 9b2f 46bf cdc8 37bf ba23 e6bd 9d24 85be
000000b0: 53fe da3e baa5 11bf c91a 06bf 9259 b2bd
000000c0: 67b9 25bf 3b64 15bf 8539 613e 7c74 28bf
000000d0: 7513 fdbe 0a88 2dbf 94b2 c3be 2348 29bf
000000e0: ba65 1ebf 785c d43d 9593 b2be 3f17 03bf
000000f0: 9548 0ebf c8ee 3dbf a91d 61be 8376 1abf
00000100: 4b00 063e 4508 69bd 1d24 0bbe 996e 9cbd
00000110: 9eab ed3d 05aa 81bd b07b b13c 8887 1b3e
00000120: 382e 2bbd a841 11be cc92 8fbd 952d f83d
00000130: d142 d83d a69a 143d a7d6 01be 1967 1bbd
00000140: a4b4 93bd 7dd6 a3bd 64ad a1bd da46 e6bd
00000150: 1655 bd3d 7747 6b3d 8ab4 e83d 39ec 1cbe
00000160: e890 1d3e 090f ddbd 2932 fd3d d3c7 55bd
00000170: 3766 463c 81bf 9b3d 8767 ba3c 9a63 e13d
0.0113818245 -0.16495247 -0.029236821 -0.1196319 0.008770293 -0.016032089 0.13384467 -0.099131905
-0.077539645 0.09727144 0.06679371 0.017998684 -0.042961206 -0.20798452 -0.0084304 0.13980587
0.12681077 -0.21417242 -0.023073837 0.08765974 -0.04229587 0.036049236 0.08236617 -0.020842228
0.11827196 -0.043371134 -0.16183326 0.07457744 -0.111520536 0.0333384 -0.17247729 -0.033520613
-0.82007354 -0.40695858 0.020023825 -0.5764902 -0.6807568 0.21328391 -0.44981834 -0.52853525
-0.7741639 -0.7179077 -0.11237283 -0.26004496 0.4277216 -0.56893504 -0.5238462 -0.087084904
-0.64736027 -0.58356065 0.21994598 -0.6580274 -0.49428907 -0.67785704 -0.38222182 -0.66125697
-0.6187397 0.103691995 -0.3487822 -0.51207346 -0.555795 -0.74192476 -0.2198397 -0.60337085
0.1308605 -0.056892652 -0.13587995 -0.07638282 0.11604999 -0.06331257 0.021665424 0.1518842
-0.041792125 -0.14185202 -0.07010421 0.12118069 0.10559619 0.036280297 -0.1267954 -0.03794012
-0.07212189 -0.07999895 -0.078944 -0.112439826 0.092447445 0.0574412 0.1136256 -0.15324487
0.15387309 -0.10793883 0.12363083 -0.05219252 0.012109331 0.07604886 0.022754444 0.110053256

fc.weight f4 [1, 32]
00000000: c344 f4bd 032c 2b3e 695e 163d 5b84 b5bd
00000010: 8583 c63d d56a b23c 3d64 50bd 9223 ea3d
00000020: b047 613e 74f1 413e b795 87bc d608 6c3d
00000030: 9455 8d3d 5107 56bd 86b5 2ebe b9b2 b13b
00000040: 8d8d e2bd c021 323e 7ff7 3fbd 8699 9fbd
00000050: 2edf b03d bdc5 723d e6f8 ce3d 0935 6abd
00000060: 6659 66bd 165e 53bd 207e 26bc 22d6 073d
00000070: 3fa3 f43d 4ed2 c33d a2ca 0fbd b888 223e
-0.11927178 0.16716008 0.03671113 -0.088631354 0.09693054 0.021779457 -0.050876845 0.11432566
0.22000003 0.18939763 -0.016550882 0.057625614 0.06901088 -0.05225307 -0.17061433 0.0054229167
-0.11062155 0.17395687 -0.04686689 -0.07792954 0.08636318 0.05927061 0.10106067 -0.057179485
-0.0562376 -0.0516034 -0.0101619065 0.033163197 0.11945199 0.09561597 -0.035105355 0.15872467
